models/ViT_model.pt (torch, 17029 bytes, 32 tensors)

cls_token f4 [1, 1, 8]
-0.04943757 0.10346445 -0.0654124 -0.028466467 -0.009587746 0.04148821 -0.04112427 0.018716965
00000000: 0d7f 4abd 2be5 d33d f0f6 85bd 8232 e9bc
00000010: ec15 1dbc 8bef 293d ec71 28bd 5254 993c

pos_embed f4 [1, 17, 8]
-0.049437594 0.10346453 -0.06541243 -0.028466485 -0.0095877275 0.041488174 -0.04112434 0.018716976
-0.18490732 -0.03533762 -0.21348256 -0.060849488 0.15744273 -0.025721248 0.50288177 0.029078012
-0.028039278 0.12886427 -0.320732 0.012686377 0.09745773 0.08548481 0.36461824 -0.29456496
-0.10102621 0.36588675 -0.08866901 0.14248306 0.055092987 -0.26739258 0.16200592 -0.21689059
-0.22162695 0.17319049 0.14841056 0.04935775 0.12278773 -0.4695897 0.19972698 -0.13498567
0.4136242 -0.74795187 0.117934324 0.20304358 -0.12789927 -0.04616978 -0.06331521 -0.058998182
0.2988156 -0.436641 0.8300209 0.34136552 -0.21740985 -0.46622348 -0.24392582 -0.086773954
-0.47413832 0.1459218 0.41756648 -1.0927182 0.42553842 0.8807608 -0.06791538 -0.3185104
0.31898302 0.14570719 -0.028319288 0.013650862 -0.08837987 0.26077905 -0.49828094 -0.2014194
-0.21088777 0.16817465 -0.2806901 -0.6023863 -0.18055175 0.363347 0.20969807 0.5390398
0.26227018 -0.17054313 -0.7129549 0.69889355 0.04404556 -0.48251233 0.07866709 0.27204183
-1.0415407 -0.643459 0.12075215 0.4194462 0.41736704 0.10530858 -0.23412667 0.65304595
0.12735538 0.106317654 -0.4497256 0.061364815 -0.020824742 -0.34103513 0.6027875 0.009760607
0.10265487 0.042406607 0.119396366 -0.4006678 0.13898897 0.07087601 -0.11025658 -0.13199657
-0.050926253 0.24501413 0.47208008 -0.27260798 -0.2425225 0.07690832 -0.25596634 -0.1848552
-0.050038453 0.034098364 0.29761925 0.051713377 -0.21821296 0.18878017 -0.4644918 0.099879466
0.2568524 -0.0994171 -0.114577085 0.06529067 -0.22015694 0.19208193 -0.33116072 0.21354346
00000000: 137f 4abd 36e5 d33d f4f6 85bd 8c32 e9bc
00000010: d815 1dbc 81ef 293d ff71 28bd 5854 993c
00000020: 5858 3dbe 2ebe 10bd 2c9b 5abe 503d 79bd
00000030: ab38 213e 5eb5 d2bc dcbc 003f 0335 ee3c
00000040: a1b2 e5bc fff4 033e fc36 a4be 86da 4f3c
00000050: eb97 c73d a912 af3d 3eaf ba3e 38d1 96be
00000060: d4e6 cebd 8255 bb3e 1998 b5bd 14e7 113e
00000070: 2fa9 613d aee7 88be e1e4 253e 9118 5ebe
00000080: 2df2 62be d958 313e f0f8 173e 5a2b 4a3d
00000090: 2278 fb3d 106e f0be 3b85 4c3e af39 0abe
000000a0: 8dc6 d33e c679 3fbf 8d87 f13d a8ea 4f3e
000000b0: 07f8 02be 861c 3dbd 68ab 81bd 14a8 71bd
000000c0: 5cfe 983e 698f dfbe 407c 543f 76c7 ae3e
000000d0: b0a0 5ebe d8b4 eebe b1c7 79be 8bb6 b1bd
000000e0: 42c2 f2be 866c 153e 46cb d53e 31de 8bbf
000000f0: 2ce0 d93e 8a79 613f 3817 8bbd cc13 a3be
00000100: be51 a33e 4434 153e dafd e7bc dda7 5f3c
00000110: 8100 b5bd d584 853e ae1e ffbe e340 4ebe
00000120: f7f2 57be fa35 2c3e 9db6 8fbe fd35 1abf
00000130: 8fe2 38be 9e08 ba3e 17bb 563e 83fe 093f
00000140: 4748 863e dca2 2ebe 3684 36bf b0ea 323f
00000150: 1e69 343d db0b f7be 361c a13d 1149 8b3e
00000160: 3551 85bf bbb9 24bf e74c f73d a7c1 d63e
00000170: 22b1 d53e 06ac d73d e7be 6fbe 052e 273f
00000180: 7369 023e 12bd d93d 6f42 e6be ac59 7b3d
00000190: a698 aabc 289c aebe 4850 1a3f f4ea 1f3c
000001a0: b73c d23d 8db2 2d3d 1586 f43d 5424 cdbe
000001b0: 2053 0e3e 7127 913d 34ce e1bd 1c2a 07be
000001c0: 0c98 50bd fce4 7a3e 7bb4 f13e 4693 8bbe
000001d0: d157 78be 1c82 9d3d 050e 83be ae4a 3dbe
000001e0: 1ff5 4cbd baaa 0b3d 8d61 983e 68d1 533d
000001f0: 3873 5fbe 974f 413e dfd1 edbe 9b8d cc3d
00000200: 2882 833e 319b cbbd 64a7 eabd 1db7 853d
00000210: d270 61be 20b1 443e e68d a9be 23ab 5a3e

patch_embed.proj.weight f4 [8, 1, 7, 7]
-0.002328736 0.040953264 0.057103373 0.025081446 0.041837018 0.0422149 0.049537655 0.024174223
-0.039271124 0.0019612683 -0.060561683 -0.03193063 -0.0046026227 -0.07050663 -0.00252722 -0.0040870667
-0.026681963 -0.010504594 -0.06821792 -0.018662816 -0.0426584 -0.009628823 -0.019429956 0.032319747
0.046050705 -0.047874104 -0.003313058 -0.012779408 -0.033433955 0.017045494 0.05073995 -0.011676029
-0.023830088 -0.05016777 0.034055278 -0.0168886 -0.008890746 -0.015052133 0.0025793398 -0.004930663
0.007092927 -0.034698863 -0.04164246 -0.033920497 -0.0236141 -0.063003965 0.034323655 0.020435814
0.02868246 -0.055647038 -0.00491681 0.006310787 -0.036431186 -0.0116146235 -0.011198512 0.012161765
0.06571243 -0.04970885 0.019207917 -0.04081898 -0.0058456482 -0.021464992 -0.029998997 0.073179856
0.032050874 0.04805612 0.052422404 -0.013217565 0.058457907 -0.014381128 0.01095779 0.03664099
0.03278972 0.06135604 -0.015815469 0.028081857 0.020149471 -0.048253603 0.035515398 0.06782442
-0.0055247345 -0.040318795 -0.06664476 0.02106542 0.02132117 -0.0336296 -0.022035161 -0.026668817
-0.04796295 -0.029269753 -0.07682234 0.0077801785 -0.021157326 -0.013353322 -0.053034075 0.023667198
0.030283362 0.017350936 -0.067098565 0.0006713014 0.020786425 -0.013858236 0.014829767 0.044978447
0.043678086 0.02427906 -0.03417465 -0.004489529 -0.044167116 -0.018502075 -0.011300692 -0.015277275
0.032856937 0.018966027 0.021976024 0.06849873 -0.012904932 0.048158936 0.006982355 -0.004694941
0.015927346 0.029674554 0.049008556 -0.00899252 0.026535064 0.0072889985 -0.05294921 0.04932425
0.086264126 0.007627888 -0.01974617 -0.043332804 0.034733955 0.019845216 -0.00960555 0.015493095
0.02563599 -0.00809264 -0.0004514921 -0.050144546 0.006891699 -0.030967131 -0.027992494 -0.0649797
0.010732215 0.014434666 0.00069309707 -0.043470956 0.016542671 0.018675854 -0.019738523 0.0030909793
0.014318461 0.0003941765 0.040469386 -0.031725712 0.019715276 -0.039320156 -0.015032695 -0.001170115
-0.022110544 0.03231199 0.011894525 0.021705896 0.045013558 -0.008881916 0.026386479 -0.0005001394
0.009605632 -0.0011878723 0.045131586 0.0480796 0.0022423537 0.03102772 0.03491543 -0.030668264
0.03799416 0.081369184 0.029221369 0.0003195063 -0.015587106 0.08064291 0.037774798 0.0012610201
0.025936365 0.04004532 0.026770283 0.018117648 -0.010463307 -0.003457454 -0.013976405 -0.017926142
-0.06104016 0.02590077 0.015225892 0.009562139 -0.0032530185 0.0143964775 0.033155195 0.019781163
0.0567519 0.045651395 0.07560614 0.006244292 2.0854695e-05 0.034173306 -0.016124766 -0.0052106683
0.033061247 0.02964159 -0.020268032 0.0025856544 -0.041343156 0.030176539 0.007923212 0.02279463
0.024394799 -0.07610146 -0.055102535 -0.017550336 -0.03629848 -0.112403095 -0.046317145 -0.035012398
-0.039794654 0.014613295 0.028530981 -0.01690303 -0.055806708 -0.054957494 0.0026215597 0.035526823
-0.003811148 0.032809407 0.038970683 0.017593406 0.017361708 -0.025904236 0.029801145 -0.0005501435
0.0019925686 -0.040383402 0.042914953 0.034188844 0.018685106 -0.031128233 0.019922607 0.01910308
0.010142523 0.015925456 0.025124755 0.026489489 0.022046294 -0.030045059 -0.0046202946 -0.064849764
00000000: b59d 18bb 9cbe 273d 3ae5 693d 9b77 cd3c
00000010: 4b5d 2b3d 88e9 2c3d ffe7 4a3d 0509 c63c
00000020: c2da 20bd 9f88 003b 870f 78bd b1c9 02bd
00000030: 99d1 96bb c865 90bd b79f 25bb cdec 85bb
00000040: 2294 dabc 761b 2cbc d6b5 8bbd c3e2 98bc
00000050: 93ba 2ebd 36c2 1dbc 922b 9fbc b661 043d
00000060: aa9f 3c3d a317 44bd e41f 59bb b960 51bc
00000070: 0bf2 08bd fea2 8b3c b2d4 4f3d d14c 3fbc
00000080: 5137 c3bc b87c 4dbd 8c7d 0b3d f659 8abc
00000090: 7eaa 11bc 399d 76bc 240a 293b 6691 a1bb
000000a0: c96b e83b 6520 0ebd 4991 2abd 38f0 0abd
000000b0: 5b72 c1bc 3908 81bd f696 0c3d 0269 a73c
000000c0: 7af7 ea3c 26ee 63bd 311d a1bb b8ca ce3b
000000d0: de38 15bd 434b 3ebc f779 37bc 2442 473c
000000e0: 3d94 863d 829b 4bbd ec59 9d3c ce31 27bd
000000f0: da8c bfbb 5ad7 afbc 75c0 f5bc 52df 953d
00000100: c747 033d 7ed6 443d e0b8 563d 7c8e 58bc
00000110: 8f71 6f3d d39e 6bbc 4d88 333c dd14 163d
00000120: 834e 063d 7950 7b3d 718f 81bc ec0b e63c
00000130: 8110 a53c 92a5 45bd 9878 113d 88e7 8a3d
00000140: d508 b5bb 5225 25bd 0c7d 88bd 6391 ac3c
00000150: bca9 ae3c 31bf 09bd 1583 b4bc 9078 dabc
00000160: cc74 44bd 1fc7 efbc 0855 9dbd def0 fe3b
00000170: 2152 adbc e4c7 5abc 423a 59bd b6e1 c13c
00000180: d014 f83c 8d23 8e3c f96a 89bd 46fa 2f3a
00000190: 4b48 aa3c a80d 63bc 8df8 723c 523b 383d
000001a0: cbe7 323d e1e4 c63c b8fa 0bbd e61c 93bb
000001b0: 94e8 34bd aa91 97bc 8a26 39bc 894d 7abc
000001c0: ff94 063d a45e 9b3c 1007 b43c 1049 8c3d
000001d0: 356f 53bc 4e42 453d 3dcc e43b 05d8 99bb
000001e0: 117a 823c 0d18 f33c 32bd 483d 5d55 13bc
000001f0: 1060 d93c 8dd8 ee3b 45e1 58bd 3a08 4a3d
00000200: 3fab b03d 5df3 f93b b8c2 a1bc bd7d 31bd
00000210: 3145 0e3d 6f92 a23c 9960 1dbc c0d6 7d3c
00000220: 9102 d23c fe96 04bc 3eb6 ecb9 5e64 4dbd
00000230: c3d3 e13b c8ae fdbc 8450 e5bc 1414 85bd
00000240: 2cd6 2f3c 617f 6c3c f5b0 353a 9a0e 32bd
00000250: 7f84 873c 1bfe 983c afb2 a1bc 0792 4a3b
00000260: fa97 6a3c 79a9 ce39 3ac3 253d d2f2 01bd
00000270: ee81 a13c 2c0e 21bd b14b 76bc 8b5e 99ba
00000280: 2c21 b5bc 9459 043d 41e1 423c 90d0 b13c
00000290: 2360 383d 7585 11bc 7528 d83c c91b 03ba
000002a0: f160 1d3c 61b2 9bba e6db 383d 1def 443d
000002b0: 74f4 123b d82d fe3c 7b03 0f3d 033c fbbc
000002c0: c49f 1b3d e3a4 a63d a761 ef3c 6983 a739
000002d0: 1061 7fbc 1c28 a53d bfb9 1a3d d048 a53a
000002e0: 8078 d43c 9006 243d 5a4d db3c 766b 943c
000002f0: 4a6e 2bbc 7496 62bb 4bfd 64bc d8d9 92bc
00000300: 3f05 7abd da2d d43c 0576 793c 85aa 1c3c
00000310: 9830 55bb 34df 6b3c becd 073d 1b0c a23c
00000320: ae74 683d f5fc 3a3d 64d7 9a3d eb9c cc3b
00000330: 1ef1 ae37 4ff9 0b3d 1618 84bc 41be aabb
00000340: 3b6b 073d ebd2 f23c 2509 a6bc 1574 293b
00000350: 7157 29bd ca34 f73c 5cd0 013c cebb ba3c
00000360: 9ad7 c73c 15db 9bbd 32b3 61bd b9c5 8fbc
00000370: b7ad 14bd 9833 e6bd 0cb7 3dbd 2969 0fbd
00000380: b8ff 22bd 9a6c 6f3c ceb9 e93c 3978 8abc
00000390: 9395 64bd 1c1b 61bd 79ce 2b3b 9384 113d
000003a0: 74c4 79bb 2863 063d b99f 1f3d 0c20 903c
000003b0: 243a 8e3c 1f35 d4bc 8821 f43c 8137 10ba
000003c0: c195 023b 1169 25bd 97c7 2f3d 9a09 0c3d
000003d0: 8211 993c a300 ffbc bc34 a33c 107e 9c3c
000003e0: d32c 263c 1a76 823c 6ed2 cd3c 7c00 d93c
000003f0: 6e9a b43c 0e21 f6bc d765 97bb f4cf 84bd

patch_embed.proj.bias f4 [8]
0.04906692 0.026130522 0.12061181 -0.051391143 -0.049688287 -0.03389363 0.040970184 -0.068400614
00000000: 65fa 483d ad0f d63c 5303 f73d 857f 52bd
00000010: f285 4bbd 0cd4 0abd 5ad0 273d 9f15 8cbd

blocks.0.norm1.weight f4 [8]
1.0813749 0.949951 1.1055115 1.0887445 0.7175621 1.1682888 0.98070365 0.8880394
00000000: 7e6a 8a3f fd2f 733f 6781 8d3f fb5b 8b3f
00000010: 26b2 373f 7d8a 953f 650f 7b3f 8d56 633f

blocks.0.norm1.bias f4 [8]
-0.084951274 -0.054488417 -0.1262997 -0.040507704 0.052924506 0.05432311 -0.092948936 0.08522313
00000000: effa adbd 3f2f 5fbd b554 01be 68eb 25bd
00000010: 5ec7 583d e981 5e3d 035c bebd 7789 ae3d

blocks.0.attn.qkv.weight f4 [24, 8]
0.17747764 0.0080262385 0.030738577 -0.51495314 -0.05617686 -0.27993786 0.2737055 0.05535986
-0.27726272 -0.26532242 -0.14651865 -0.18238983 0.3852282 -0.4053446 0.4266038 0.281416
-0.107457496 -0.08000646 -0.027342811 -0.34263378 0.18234706 0.4873912 0.1811146 0.09130332
0.41221008 -0.29969501 0.14839712 -0.12251747 -0.058356192 0.12000093 0.03662389 0.1112665
-0.15789266 0.28827858 0.09053429 -0.20376156 -0.052680127 -0.07108052 -0.20314592 -0.11407208
0.04431929 -0.0092369085 -0.33229983 0.3779237 -0.10753653 -0.3217099 0.39229488 -0.112933874
0.24027506 -0.19842313 0.05962659 0.17708886 0.047156464 -0.24782561 -0.01871376 0.046668787
-0.178556 -0.23091789 0.16243158 -0.10681384 0.1351314 0.4014514 -0.39076015 0.12610002
-0.6018014 -0.078917906 0.20670928 0.060999494 0.2049196 -0.03978277 -0.019999096 0.21305501
-0.39542133 -0.28899202 -0.0880245 0.35544735 -0.26653725 0.08955378 0.31517822 0.41686735
-0.17305394 0.33029237 -0.010308098 -0.28725263 0.073809005 -0.41287825 0.27938697 0.14959852
-0.38649073 0.073934145 -0.23968677 -0.112096325 0.15073228 0.46749252 -0.10428889 -0.114624694
-0.333541 -0.08591738 0.30008614 0.10441474 -0.011581798 -0.28767624 0.01301034 -0.23973311
-0.17343472 -0.30953583 -0.12804386 -0.18448628 0.13211848 0.33843955 -0.36143273 0.2863931
-0.016724512 0.1745381 -0.26470566 -0.301129 0.2572431 0.06075075 -0.1447492 0.19017895
0.21780273 0.38546705 -0.0024585992 0.057782892 -0.2271092 -0.27842903 -0.057100113 -0.22110397
0.08020398 -0.099687316 -0.29397663 -0.17004195 0.020539125 0.37921655 0.07654686 0.21104796
0.043436773 0.14908347 -0.11046248 -0.1400462 -0.1314203 -0.0949307 -0.38817167 -0.0040262453
-0.35008 0.18518722 -0.5004497 0.034952085 -0.015305263 -0.114922605 0.0398443 0.064468026
0.23509234 0.18328094 -0.4211198 0.2989708 -0.12976778 -0.14153744 -0.1071504 0.32221267
0.023324799 0.16793346 0.4205826 -0.40788218 0.21325818 0.28026873 0.20297718 -0.10903421
0.073522836 0.2766598 -0.034973305 0.1623735 -0.15187982 -0.12237154 0.3278658 -0.11294388
0.16928859 0.039562494 0.37815043 0.32266387 -0.18487191 0.026517624 -0.13606167 0.15430942
0.20162238 -0.31878605 0.21285938 0.17622475 -0.042160623 -0.31849465 -0.059197553 -0.14125486
00000000: b3bc 353e 7c80 033c 78cf fb3c f8d3 03bf
00000010: b519 66bd 0454 8fbe 2123 8c3e 05c1 623d
00000020: 61f5 8dbe 57d8 87be fc08 16be 66c4 3abe
00000030: a13c c53e 5489 cfbe d06b da3e c215 903e
00000040: ad12 dcbd 6dda a3bd 08fe dfbc b26d afbe
00000050: 30b9 3a3e 578b f93e 1b76 393e 3cfd ba3d
00000060: 330d d33e a071 99be 6af5 173e 70ea fabd
00000070: e706 6fbd 0cc3 f53d ef02 163d b1df e33d
00000080: 9dae 21be 4099 933e 0b6a b93d dfa6 50be
00000090: 1ec7 57bd aa92 91bd 7c05 50be 9f9e e9bd
000000a0: 2588 353d 6756 17bc 3423 aabe 377f c13e
000000b0: 1d3c dcbd 29b7 a4be e0da c83e e049 e7bd
000000c0: aa0a 763e 6f2f 4bbe 033b 743d c856 353e
000000d0: 2327 413d ffc5 7dbe 994d 99bc c527 3f3d
000000e0: 62d7 36be bd75 6cbe 7754 263e 37c1 dabd
000000f0: e35f 0a3e 0a8b cd3e b711 c8be 5d20 013e
00000100: a80f 1abf b69f a1bd 99ab 533e 9bda 793d
00000110: 72d6 513e 42f3 22bd 25d5 a3bc 182b 5a3e
00000120: aa74 cabe c3f6 93be 3046 b4bd 32fd b53e
00000130: 9277 88be f967 b73d 0a5f a13e a36f d53e
00000140: 0d35 31be 151c a93e 4ce3 28bc c712 93be
00000150: 2d29 973d c764 d3be cf0b 8f3e 5b30 193e
00000160: 1de2 c5be c96a 973d 7370 75be c292 e5bd
00000170: 9059 1a3e 2e5b ef3e 6a95 d5bd 5ac0 eabd
00000180: e3c5 aabe 74f5 afbd e4a4 993e 65d7 d53d
00000190: 95c1 3dbc 4d4a 93be 5229 553c 997c 75be
000001a0: df98 31be 7b7b 9ebe ee1d 03be f9e9 3cbe
000001b0: 114a 073e f347 ad3e b60d b9be 1ea2 923e
000001c0: d801 89bc 1eba 323e 8087 87be 952d 9abe
000001d0: 5eb5 833e c7d5 783d 2239 14be 45be 423e
000001e0: ae07 5f3e f05b c53e 7320 21bb c1ad 6c3d
000001f0: 508f 68be 408e 8ebe cfe1 69bd 1469 62be
00000200: fc41 a43d dd28 ccbd 1b84 96be 7a1f 2ebe
00000210: ab41 a83c ac28 c23e 9ac4 9c3d f51c 583e
00000220: c2ea 313d 56a9 183e 273a e2bd 4568 0fbe
00000230: 0b93 06be 076b c2bd 70be c6be 98ee 83bb
00000240: b03d b3be b8a1 3d3e 791d 00bf eb29 0f3d
00000250: edc2 7abc 8b5c ebbd c733 233d d007 843d
00000260: 0cbc 703e 00ae 3b3e 049d d7be b312 993e
00000270: d8e1 04be 31ef 10be ab71 dbbd 0ff9 a43e
00000280: a613 bf3c c0f6 2b3e 9a56 d73e efd5 d0be
00000290: 5a60 5a3e 627f 8f3e 40d9 4f3e 544d dfbd
000002a0: 2493 963d 5aa6 8d3e 2b40 0fbd 3d45 263e
000002b0: 6286 1bbe ee9d fabd 07de a73e 1f4f e7bd
000002c0: fd59 2d3e 480c 223d ef9c c13e 3334 a53e
000002d0: 104f 3dbe 7d3b d93c c053 0bbe 4a03 1e3e
000002e0: 1976 4e3e ed37 a3be cff7 593e 4374 343e
000002f0: 9eb0 2cbd bb11 a3be 2279 72bd 1da5 10be

blocks.0.attn.qkv.bias f4 [24]
0.2835938 0.22570343 -0.08534127 -0.01538941 0.22108091 -0.042705305 -0.17128369 -0.09873638
9.2611634e-07 9.830599e-06 -2.623785e-06 -2.3107843e-06 4.79391e-06 -9.723415e-06 -9.841298e-06 4.8335933e-06
0.00039099687 -0.0505489 0.004725214 0.00069132564 -0.032128777 -0.061618775 -0.03939105 -0.07986771
00000000: 3533 913e cd1e 673e 67c7 aebd dd23 7cbc
00000010: 0963 623e c2eb 2ebd fe64 2fbe 4d36 cabd
00000020: 3b9a 7835 1aee 2437 4814 30b6 f912 1bb6
00000030: 60db a036 c021 23b7 0e1c 25b7 4030 a236
00000040: b6fe cc39 5d0c 4fbd f8d5 9a3b 143a 353a
00000050: 7799 03bd f863 7cbd 8258 21bd af91 a3bd

blocks.0.attn.proj.weight f4 [8, 8]
-0.4002374 -0.077769026 -0.0547182 -0.04391145 -0.1880984 0.21032898 -0.2219716 -0.19706185
0.1384749 0.270419 0.35375944 0.36656386 0.2826533 0.33330366 -0.25380668 0.22154936
0.30316707 -0.029889304 -0.20531556 0.050365686 0.0724616 -0.07179471 0.0144115 -0.087331384
-0.15599146 -0.14366533 0.3183793 0.20952718 0.20157947 -0.02754835 0.12477971 0.032043684
-0.13855718 0.24219258 0.26381493 0.10812689 -0.15028323 -0.224409 0.11408014 0.32922965
-0.24796095 0.03180357 -0.31879765 -0.4823827 0.2316322 0.17279698 0.19083518 -0.23814483
-0.014584236 0.20772326 -0.14572531 0.09630931 -0.27528006 -0.01298329 -0.26520157 -0.08545
0.35225585 -0.07261159 0.17450194 -0.38744512 -0.36762884 0.32205856 0.33856454 0.33427444
00000000: ebeb ccbe 5e45 9fbd 3120 60bd 7edc 33bd
00000010: de9c 40be 7b60 573e 864c 63be 95ca 49be
00000020: 5dcc 0d3e 5c74 8a3e f51f b53e 42ae bb3e
00000030: efb7 903e c7a6 aa3e f3f2 81be d6dd 623e
00000040: b738 9b3e 6ada f4bc 3e3e 52be 404c 4e3d
00000050: bf66 943d 1b09 93bd 361e 6c3c ccda b2bd
00000060: 3abc 1fbe 011d 13be 9d02 a33e 4b8e 563e
00000070: d96a 4e3e 14ad e1bc 818c ff3d 3d40 033d
00000080: efe1 0dbe 5501 783e c012 873e a271 dd3d
00000090: d9e3 19be 79cb 65be d9a2 e93d ca90 a83e
000000a0: 7ae9 7dbe 7644 023d 7239 a3be defa f6be
000000b0: fe30 6d3e b1f1 303e 4c6a 433e 3ddc 73be
000000c0: b8f2 6ebc 68b5 543e 0439 15be d13d c53d
000000d0: 82f1 8cbe ddb7 54bc 80c8 87be 6900 afbd
000000e0: e15a b43e 63b5 94bd a3b0 323e 355f c6be
000000f0: d939 bcbe dce4 a43e 5558 ad3e 0526 ab3e

blocks.0.attn.proj.bias f4 [8]
-0.0046352814 -0.026551217 -0.08681619 0.0514112 0.01598331 0.010761253 0.050391737 -0.007964
00000000: 8fe3 97bb f081 d9bc b0cc b1bd 8d94 523d
00000010: 6eef 823c f74f 303c 9167 4e3d 707b 02bc

blocks.0.norm2.weight f4 [8]
1.0373306 0.8179225 0.9203296 0.90861297 0.97490805 0.8969743 1.2004789 0.8175136
00000000: 40c7 843f 5e63 513f b89a 6b3f dc9a 683f
00000010: 9393 793f 1ca0 653f 4ba9 993f 9248 513f

blocks.0.norm2.bias f4 [8]
-0.011461873 -0.071451835 0.09151721 0.024879962 0.013552922 -0.020923141 -0.036440026 -0.04687871
00000000: 94ca 3bbc 5755 92bd 606d bb3d 10d1 cb3c
00000010: 130d 5e3c 0267 abbc 2342 15bd e403 40bd

blocks.0.mlp.fc1.weight f4 [16, 8]
0.37146777 0.1983732 0.2102816 -0.31906736 -0.3247953 -0.1330402 0.078222394 0.08340003
0.14626005 -0.32049754 0.13054909 0.45284623 -0.29213142 -0.06724541 -0.23280832 -0.12841533
-0.20175461 -0.21216772 -0.27182758 0.21977243 -0.17441456 0.2937784 0.25095016 0.23374486
-0.3226873 -0.06228314 0.015999366 0.0076894844 -0.45096344 -0.22201206 0.3764239 0.049426172
-0.12249021 -0.29175717 0.20076993 0.10041071 -0.071737975 -0.5386619 -0.2874644 0.35944462
0.24470204 0.08620537 -0.12905192 0.03033818 0.103361726 0.097327515 0.15079659 -0.3135244
0.008133975 -0.2019881 -0.083293706 -0.17670587 0.024016656 0.25046676 0.3340735 -0.19503699
0.25657758 -0.048850585 -0.0035940094 0.08131149 -0.25004977 -0.047327507 0.08078658 -0.20365928
-0.24028726 -0.27921447 -0.03936848 0.076436065 -0.0038633544 -0.35661635 0.3992708 0.27263516
-0.45178017 0.030487154 0.42000762 -0.048614927 0.20366642 0.024277302 -0.018923787 0.03250797
0.28253117 -0.16408047 -0.20887075 0.22896591 -0.05616577 0.005288096 -0.42971483 0.2659762
-0.24580656 -0.44366157 0.15339762 0.41588134 0.16414686 0.28083956 0.15040651 -0.29285446
0.43600976 -0.10598079 -0.08648376 -0.12476985 0.21648043 -0.19338927 -0.6407922 0.21184392
0.4099514 0.111912355 -0.09024939 -0.25180483 0.27177584 -0.11745495 0.24671029 0.03164329
-0.19037797 0.021645145 0.10824465 0.07613365 -0.11466253 0.049570654 -0.24685791 0.086388774
-0.12699296 0.14185221 0.36467376 -0.32028207 0.37275848 0.050787073 -0.1887464 0.099886715
00000000: 0631 be3e 5822 4b3e 0f54 573e cc5c a3be
00000010: 924b a6be b13b 08be 1033 a03d a3cd aa3d
00000020: 32c5 153e 4118 a4be a9ae 053e 76db e73e
00000030: 4092 95be f6b7 89bd 4e65 6ebe 4f7f 03be
00000040: c398 4ebe 7f42 59be fc2c 8bbe 060c 613e
00000050: bb99 32be 1f6a 963e 8a7c 803e d05a 6f3e
00000060: 4537 a5be 9b1c 7fbd 1a11 833c 12f8 fb3b
00000070: aee4 e6be 2157 63be a2ba c03e 1973 4a3d
00000080: 26dc fabd 3261 95be a296 4d3e 21a4 cd3d
00000090: 5ceb 92bd bfe5 09bf 892e 93be 2009 b83e
000000a0: 2c93 7a3e 718c b03d 3026 04be c687 f83c
000000b0: 50af d33d a653 c73d 6c6a 1a3e 4586 a0be
000000c0: 5d44 053c f8d5 4ebe e495 aabd 62f2 34be
000000d0: 94be c43c 2e3d 803e af0b ab3e c7b7 47be
000000e0: 235e 833e 8d17 48bd 7989 6bbb a386 a63d
000000f0: 8606 80be 7dda 41bd 6f73 a53d 0f8c 50be
00000100: dd0d 76be 33f5 8ebe d840 21bd 838a 9c3d
00000110: 5530 7dbb 6b96 b6be 396d cc3e d696 8b3e
00000120: bb4f e7be 32c0 f93c 3d0b d73e 7220 47bd
00000130: ee8d 503e 31e1 c63c 0f06 9bbc 1427 053d
00000140: eda7 903e b604 28be 37e2 55be 0a76 6a3e
00000150: 140e 66bd c447 ad3b 9503 dcbe 082e 883e
00000160: b7b4 7bbe 9c27 e3be 4414 1d3e 66ee d43e
00000170: 1d16 283e 34ca 8f3e 2a04 1a3e 05f1 95be
00000180: ac3c df3e 750c d9bd 661e b1bd 5687 ffbd
00000190: 0cad 5d3e d607 46be f50a 24bf 9ded 583e
000001a0: 26e5 d13e 4e32 e53d acd4 b8bd 90ec 80be
000001b0: 3426 8b3e 398c f0bd 9fa1 7c3e 659c 013d
000001c0: 71f2 42be 2951 b13c 5faf dd3d f6eb 9b3d
000001d0: 30d4 eabd 990a 4b3d 52c8 7cbe 99ec b03d
000001e0: 710a 02be b541 113e 85b6 ba3e 03fc a3be
000001f0: 33da be3e 1b06 503d bc46 41be 6891 cc3d

blocks.0.mlp.fc1.bias f4 [16]
-0.096302964 0.019400949 -0.06267736 -0.07399615 0.027822763 -0.095010936 -0.067110375 -0.056121547
-0.018012205 -0.055617142 -0.059165426 0.01850947 -0.18216023 -0.031496637 -0.0020923 -0.04536492
00000000: 7d3a c5bd bdee 9e3c fd5c 80bd 4b8b 97bd
00000010: 90ec e33c 1895 c2bd 2a71 89bd b5df 65bd
00000020: 558e 93bc cdce 63bd 7257 72bd 2ca1 973c
00000030: 3688 3abe 9e02 01bd f81e 09bb 91d0 39bd

blocks.0.mlp.fc2.weight f4 [8, 16]
0.026222097 -0.37426904 0.057842918 0.3225345 -0.15126273 -0.10488861 0.12030167 0.043100387
-0.20291683 0.040667735 -0.37223712 0.29073194 -0.28310823 -0.25503463 0.0023918024 0.026287075
-0.019117929 0.25213522 0.22184616 -0.011924378 0.028617108 0.19944453 0.30980036 -0.089039825
-0.1128305 -0.031906124 -0.042629264 0.29795286 0.22918688 0.024660608 -0.06474448 0.2166584
-0.08518461 -0.2939546 0.10492948 -0.27859935 0.16272539 0.07273922 0.114655815 -0.15224852
0.09568723 -0.42177406 0.096309714 -0.21265675 0.2110635 -0.024372503 -0.18267222 -0.22319295
0.33473003 -0.09424013 -0.28437307 -0.103332244 0.22816598 0.0116915405 0.16872032 0.022519348
-0.1364623 0.10150378 0.120082386 -0.20651099 -0.08412609 -0.108493425 0.16749504 0.13424471
0.16017078 0.07711749 0.24930562 0.093594655 -0.05614228 -0.084601216 -0.22625148 -0.038183775
0.09404483 -0.013850654 0.18493994 -0.31726012 -0.2855183 0.00034889244 0.019039402 -0.18431346
0.0468344 0.0016733696 -0.077886514 0.06394595 0.20210266 0.009945205 0.008278828 0.20462695
0.2797375 0.13640265 -0.12763259 -0.18010552 -0.24063593 -0.27076253 -0.10671229 0.025100412
0.23612975 -0.0067036385 -0.2095592 -0.059302542 -0.0032996417 -0.21425338 0.05691033 -0.10609514
-0.07317385 -0.13525826 0.07691227 -0.12852578 0.13067704 -0.33857882 0.2287374 -0.009520073
-0.0982234 0.2509124 -0.2128501 0.2626489 -0.4278073 0.06304654 0.16205767 0.034120303
-0.10666751 0.06878698 -0.0906044 -0.21617576 0.2578348 0.073907934 0.020877711 -0.29569814
00000000: b9cf d63c 31a0 bfbe b2ec 6c3d 3e23 a53e
00000010: 9ee4 1abe d7cf d6bd b960 f63d 088a 303d
00000020: 6ec9 4fbe 3693 263d dd95 bebe d1da 943e
00000030: 90f3 90be e693 82be c9bf 1c3b fe57 d73c
00000040: 349d 9cbc de17 813e a42b 633e 775e 43bc
00000050: 6d6e ea3c 303b 4c3e 279e 9e3e 835a b6bd
00000060: ad13 e7bd ffaf 02bd 069c 2ebd 478d 983e
00000070: f7af 6a3e 0b05 ca3c c198 84bd b3db 5d3e
00000080: 4575 aebd 3881 96be 44e5 d63d 93a4 8ebe
00000090: 7ca1 263e 4df8 943d abd0 ea3d 09e7 1bbe
000000a0: abf7 c33d c5f2 d7be 073e c53d b1c2 59be
000000b0: 0821 583e d8a8 c7bc 6d0e 3bbe b18c 64be
000000c0: bc61 ab3e f800 c1bd 5999 91be db9f d3bd
000000d0: 58a4 693e e08d 3f3c 05c5 2c3e 7f7a b83c
000000e0: c6bc 0bbe 37e1 cf3d c1ed f53d 9e77 53be
000000f0: 4d4a acbd cd31 debd d283 2b3e 7277 093e
00000100: cf03 243e c6ef 9d3d f949 7f3e 8eae bf3d
00000110: 73f5 65bd 6743 adbd 78ae 67be 9766 1cbd
00000120: 939a c03d daed 62bc e560 3d3e eb6f a2be
00000130: 742f 92be 8deb b639 85f8 9b3c abbc 3cbe
00000140: 6ed5 3f3d f754 db3a f782 9fbd 18f6 823d
00000150: 00f4 4e3e 37f1 223c eca3 073c ba89 513e
00000160: c139 8f3e 23ad 0b3e 1eb2 02be 956d 38be
00000170: 4469 76be 63a1 8abe f98b dabd 619f cd3c
00000180: ffcb 713e 32aa dbbb b096 56be 39e7 72bd
00000190: cd3e 58bb 3d65 5bbe ce1a 693d 6948 d9bd
000001a0: 2cdc 95bd 2481 0abe 2e84 9d3d 439c 03be
000001b0: 34d0 053e 345a adbe 233a 6a3e 15fa 1bbc
000001c0: 5a29 c9bd 9777 803e 60f5 59be eb79 863e
000001d0: 8f09 dbbe 8b1e 813d 72f2 253e bbc1 0b3d
000001e0: 7f74 dabd 30e0 8c3d cd8e b9bd 2e5d 5dbe
000001f0: ec02 843e 0b5d 973d bc07 ab3c bf65 97be

blocks.0.mlp.fc2.bias f4 [8]
0.103001945 -0.01891647 -0.05013838 0.02633605 0.0091725625 -0.036816984 -0.015347585 0.014277755
00000000: aff2 d23d b7f6 9abc e75d 4dbd b3be d73c
00000010: 8448 163c 68cd 16bd 7074 7bbc 3fed 693c

blocks.1.norm1.weight f4 [8]
1.0325075 0.88872355 1.1640449 1.1780858 0.8629311 1.0042831 0.9648728 1.0251017
00000000: 3529 843f 6383 633f 6cff 943f 84cb 963f
00000010: 0de9 5c3f 598c 803f e701 773f 8836 833f

blocks.1.norm1.bias f4 [8]
-0.10047385 -0.19626305 -0.090917386 -0.16302383 0.16059925 -0.14090326 -0.14606261 0.11369779
00000000: 3cc5 cdbd 2ef9 48be e532 babd b8ef 26be
00000010: 2174 243e f248 10be 7091 15be 63da e83d

blocks.1.attn.qkv.weight f4 [24, 8]
0.36539197 0.067351006 -0.1872564 -0.39639735 0.2698833 -0.023612745 -0.0031836666 -0.10337069
0.08309466 -0.011011403 -0.3270051 0.07395887 -0.30536342 0.20878871 0.13868113 0.2380042
-0.36124247 0.031041898 0.38164663 -0.045375135 -0.25572816 0.34233037 0.16044886 -0.086880565
0.028665463 -0.0014479387 0.2254052 -0.41046152 0.07554524 -0.11108204 0.02634823 0.20592839
-0.15055327 -0.008338381 0.34679845 -0.1997528 0.034158558 -0.23696671 0.014490025 0.26015437
0.17925303 0.21567038 -0.42101976 -0.21020915 0.26968643 -0.12915012 -0.14468509 0.07386492
0.19594617 0.059415884 0.21477707 0.23135404 -0.15707111 0.11034887 -0.078512065 -0.31488368
-0.71763253 -0.07994631 -0.30858728 0.12772283 0.34772232 0.0807792 0.033994924 -0.07015667
0.038573667 -0.109334335 -0.18211287 0.10676103 -0.07799399 0.3194196 -0.30039734 -0.36394313
-0.29197174 0.0461303 -0.023750985 0.3390753 -0.20935793 -0.14826648 0.057160567 0.12158937
0.30677167 -0.23037542 0.26319313 0.29975435 -0.12944955 -0.5254581 0.23528068 0.04791317
0.3559792 -0.04740067 0.05681343 0.12139178 -0.1369502 -0.030691994 -0.34009185 0.04809456
-0.09719994 0.24855772 0.09558588 -0.2586901 -0.07523899 0.3365981 -0.30856434 -0.15803434
0.0072297296 -0.056334667 -0.12036128 0.48992708 -0.2006584 -0.13308382 0.07231539 -0.22571988
-0.078718096 -0.28856105 0.084597394 -0.12257691 0.050815243 0.15618855 0.10487396 0.39125896
0.45426163 0.4050692 -0.07521319 0.12323058 -0.2236363 -0.33173314 0.3193426 0.012751257
0.3070373 -0.31041765 -0.020514034 0.039879184 0.15275088 0.17069034 -0.34276515 0.3317389
0.030175041 -0.014323734 0.5068228 -0.18474321 0.12419081 0.1868618 -0.17883848 0.09990756
-0.10103341 -0.1953428 -0.19267277 0.20274614 -0.0380947 -0.45052725 -0.25875664 0.17521791
0.08851254 -0.15367237 -0.021605171 0.28894374 -0.18663451 0.10364051 -0.016739745 -0.24313697
-0.10356098 0.048502106 -0.03492296 0.2930005 -0.3242897 -0.1664725 0.26884258 0.11519584
-0.043691177 0.3780628 -0.22956784 -0.3444455 0.12283875 0.09068337 0.3297603 -0.06514869
0.15211271 0.01844889 0.35581815 -0.4153875 -0.09391054 0.24594142 -0.033574894 -0.046192188
0.38946015 0.29568648 -0.008759414 0.23156771 -0.056345295 0.19888556 -0.04715569 -0.13647278
00000000: a814 bb3e 53ef 893d 24c0 3fbe 98f4 cabe
00000010: 252e 8a3e 846f c1bc 10a5 50bb 03b4 d3bd
00000020: 882d aa3d 2c69 34bc 366d a7be bf77 973d
00000030: 9858 9cbe b5cc 553e 6d02 0e3e 5fb7 733e
00000040: c6f4 b8be 944b fe3c 3067 c33e 47db 39bd
00000050: cdee 82be ed45 af3e b54c 243e 70ee b1bd
00000060: d5d3 ea3c c3c8 bdba 9fd0 663e 0328 d2be
00000070: 76b7 9a3d fb7e e3bd 3ed8 d73c e4de 523e
00000080: a32a 1abe b49d 08bc 918f b13e ff8b 4cbe
00000090: d8e9 0b3d 67a7 72be 9267 6d3c f432 853e
000000a0: 1b8e 373e b2d8 5c3e e78f d7be 1141 57be
000000b0: 5714 8a3e ee3f 04be 5428 14be 7e46 973d
000000c0: 1da6 483e 125e 733d 85ee 5b3e 13e8 6c3e
000000d0: 40d7 20be 97fe e13d efca a0bd 6f38 a1be
000000e0: c4b6 37bf e4ba a3bd 27ff 9dbe c6c9 023e
000000f0: a908 b23e 916f a53d 433e 0b3d 4dae 8fbd
00000100: 6cff 1d3d aeea dfbd cc7b 3abe 87a5 da3d
00000110: 50bb 9fbd f78a a33e aecd 99be c156 babe
00000120: 527d 95be 20f3 3c3d 6d91 c2bc 479b ad3e
00000130: ed61 56be 2bd3 17be 3321 6a3d d903 f93d
00000140: 2d11 9d3e 89e7 6bbe 40c1 863e 6779 993e
00000150: 6c8e 04be 6c84 06bf 6bed 703e 9a40 443d
00000160: e842 b63e 3427 42bd 33b5 683d 419c f83d
00000170: ac3c 0cbe c76d fbbc 8520 aebe cdfe 443d
00000180: c310 c7bd ea85 7e3e 88c2 c33d 0773 84be
00000190: e616 9abd 9656 ac3e 25fc 9dbe c1d3 21be
000001a0: 5ee7 ec3b 2ebf 66bd fa7f f6bd b9d7 fa3e
000001b0: 6579 4dbe 2047 08be 171a 943d 1d23 67be
000001c0: f436 a1bd 46be 93be 6641 ad3d 9a09 fbbd
000001d0: a523 503d e4ef 1f3e 29c8 d63d 1853 c83e
000001e0: fb94 e83e 3b65 cf3e 5f09 9abd 5060 fc3d
000001f0: ea00 65be edd8 a9be e080 a33e a6ea 503c
00000200: fe33 9d3e 10ef 9ebe 0c0d a8bc 5b58 233d
00000210: ba6a 1c3e 73c9 2e3e ea7e afbe aed9 a93e
00000220: a631 f73c 18ae 6abc 24bf 013f 532d 3dbe
00000230: c057 fe3d b358 3f3e 6f21 37be 569c cc3d
00000240: 9bea cebd f107 48be 034c 45be af9c 4f3e
00000250: 3009 1cbd 82ab e6be c07b 84be 536c 333e
00000260: 1046 b53d 4a5c 1dbe 54fd b0bc 6ff0 933e
00000270: 1e1d 3fbe 7a41 d43d ca21 89bc e6f8 78be
00000280: c717 d4bd 25aa 463d 610b 0fbd 2904 963e
00000290: 4d09 a6be c477 2abe bca5 893e cceb eb3d
000002a0: 85f5 32bd 7391 c13e d513 6bbe 295b b0be
000002b0: e292 fb3d 34b8 b93d 58d6 a83e ad6c 85bd
000002c0: 6fc3 1b3e 2022 973c cc2d b63e acad d4be
000002d0: 2b54 c0bd 11d8 7b3e d485 09bd 0534 3dbd
000002e0: 5267 c73e 3864 973e a583 0fbc 1620 6d3e
000002f0: 53ca 66bd a8a8 4b3e 5326 41bd 85bf 0bbe

blocks.1.attn.qkv.bias f4 [24]
0.22781919 -0.20005651 -0.38140687 -0.14936332 -0.17125879 0.2795816 -0.08710073 0.13811278
-5.949699e-06 3.8960485e-07 -4.6443547e-06 4.2751053e-06 -7.8377195e-07 1.179133e-06 -7.5402395e-06 2.685429e-06
0.05037068 0.07677371 0.15683039 -0.0014031903 -0.13050674 0.055798113 0.033361703 -0.2065736
00000000: 6f49 693e 9ddb 4cbe c347 c3be b3f2 18be
00000010: 775e 2fbe 5225 8f3e de61 b2bd 706d 0d3e
00000020: 86a3 c7b6 e22a d134 b4d6 9bb6 e072 8f36
00000030: 6664 52b5 b442 9e35 2a02 fdb6 5237 3436
00000040: 7c51 4e3d 893b 9d3d 2598 203e 41eb b7ba
00000050: 8fa3 05be 908c 643d 48a6 083d 0888 53be

blocks.1.attn.proj.weight f4 [8, 8]
0.24925292 0.07704189 0.48371297 -0.14307378 0.07408536 0.13865747 0.23568654 -0.24351536
-0.15873039 -0.083126135 -0.44766092 0.11894504 0.22845475 -0.005320981 0.20379806 0.143501
0.11971269 0.20270069 -0.18503459 -0.0049920725 -0.09763459 0.17073411 -0.45768294 0.0019027151
0.10071353 0.22477067 0.08499601 0.3496888 0.068913534 0.36933717 0.10603331 0.036270738
-0.19561104 -0.43736735 -0.118110344 0.09148363 -0.21896715 0.042164005 0.22461553 -0.21237142
0.37777764 -0.15514638 0.21612132 0.030641116 0.16285093 0.08432469 0.035424724 0.5897129
-0.23070748 -0.09640865 0.15809923 -0.06234082 0.09130566 -0.23173048 -0.0012108427 0.1830629
-0.135834 0.2219979 -0.2048065 -0.29977798 -0.08572432 -0.16663812 0.18342839 -0.04790831
00000000: 283c 7f3e 23c8 9d3d 3aa9 f73e ef81 12be
00000010: 11ba 973d 39fc 0d3e d057 713e 175c 79be
00000020: 388a 22be 093e aabd d033 e5be 7599 f33d
00000030: 0bf0 693e a05b aebb 70b0 503e edf1 123e
00000040: ed2b f53d c590 4f3e b579 3dbe 8a94 a3bb
00000050: a5f4 c7bd ecd4 2e3e 6b55 eabe 8664 f93a
00000060: e542 ce3d 482a 663e 6312 ae3d 690a b33e
00000070: 8a22 8d3d c319 bd3e fe27 d93d a090 143d
00000080: 434e 48be 9dee dfbe d6e3 f1bd c55b bb3d
00000090: ed38 60be 2ab4 2c3d 9d01 663e e577 59be
000000a0: 126c c13e b1de 1ebe e84e 5d3e 1403 fb3c
000000b0: 65c2 263e 6cb2 ac3d 8419 113d 6df7 163f
000000c0: 953e 6cbe e671 c5bd c4e4 213e 1659 7fbd
000000d0: 76fe ba3d c14a 6dbe 24b5 9eba d774 3b3e
000000e0: 1118 0bbe 6b53 633e ccb8 51be 807c 99be
000000f0: 3b90 afbd 2fa3 2abe a7d4 3b3e 813b 44bd

blocks.1.attn.proj.bias f4 [8]
0.08953253 -0.12433872 0.06256939 0.06324072 0.05145334 -0.093719706 0.004790782 -0.047369476
00000000: d55c b73d 4da5 febd 6124 803d 5a84 813d
00000010: bdc0 523d 1ef0 bfbd fefb 9c3b 7f06 42bd

blocks.1.norm2.weight f4 [8]
0.72207534 0.84050953 0.7683449 0.86328274 0.87054026 0.7866365 0.83253217 0.85420644
00000000: eed9 383f a22b 573f 40b2 443f 1900 5d3f
00000010: badb 5e3f 0261 493f d420 553f 46ad 5a3f

blocks.1.norm2.bias f4 [8]
-0.0039866855 -0.014882218 -0.17533155 0.13179603 -0.11956202 0.055648528 -0.008992996 0.10306623
00000000: bea2 82bb 8cd4 73bc 1d8a 33be 8af5 063e
00000010: efdc f4bd b6ef 633d 5c57 13bc 6314 d33d

blocks.1.mlp.fc1.weight f4 [16, 8]
-0.22467263 0.0102449 0.21600704 -0.011829516 0.14983529 -0.0406744 -0.19861907 -0.109142825
-0.06984613 0.09769467 -0.29593164 -0.2965259 0.0023224878 0.059863266 0.120139994 0.26492298
-0.12317191 0.026418742 0.21509297 -0.061560955 0.3994256 -0.16165374 0.18020396 0.24376468
0.15002762 -0.067961544 -0.10422724 0.24276263 -0.350218 0.1967753 0.28885332 -0.2352218
0.23980282 -0.54346716 -0.26019782 -0.12053266 -0.20207158 0.024237273 0.017108535 0.2166235
-0.13397828 0.2281874 -0.3376977 -0.11621898 -0.22057612 -0.09783629 -0.12375969 0.3387406
-0.21832474 0.058900677 0.36590242 0.17211388 -0.3121275 0.19558798 -0.18401287 0.3763173
-0.04489361 0.047358487 0.21038897 -0.21244553 -0.17812689 -0.17440356 0.49904174 0.0003489217
0.042344052 -0.07965771 0.026866015 -0.18406704 0.15325303 0.08067737 -0.34801248 -0.17172678
0.18617937 -0.0014501764 -0.026551617 -0.20481722 -0.27272916 0.44023865 -0.3320539 -0.11960381
0.24708326 -0.06633043 0.050440945 0.440701 -0.19758949 -0.09577249 -0.09433851 0.035918884
-0.17849076 0.29142958 -0.15214765 0.1515989 -0.13953869 0.056969643 -0.3100155 0.30391115
-0.0858908 0.15672454 0.30348426 0.12454983 -0.17023 0.0004611921 0.050472476 -0.23623462
0.25478578 -0.15240008 -0.054860227 -0.123923786 -0.029298779 -0.48675886 0.03257703 0.21762674
0.31889245 0.047942154 -0.019171748 -0.39226365 -0.10693982 0.062892646 -0.054182474 -0.06464543
-0.13635755 -0.41418862 0.27111948 0.062064458 0.026480118 -0.13158275 -0.06418177 0.30517513
00000000: 9510 66be 3ada 273c f330 5d3e 96d0 41bc
00000010: 6c6e 193e 339a 26bd cc62 4bbe 4686 dfbd
00000020: 7d0b 8fbd 2514 c83d 5a84 97be 3ed2 97be
00000030: e134 183b 2f33 753d f50b f63d fca3 873e
00000040: 8e41 fcbd 1e6c d83c 5541 5c3e 5727 7cbd
00000050: 8381 cc3e 8f88 25be 6387 383e 739d 793e
00000060: d7a0 193e 6c2f 8bbd 1775 d5bd c496 783e
00000070: c64f b3be 777f 493e 95e4 933e fcdd 70be
00000080: df8e 753e aa20 0bbf a638 85be d4d9 f6bd
00000090: daeb 4ebe 3f8d c63c 3327 8c3c 8dd2 5d3e
000000a0: 9a31 09be f5a9 693e b7e6 acbe 3704 eebd
000000b0: b5de 61be 655e c8bd b875 fdbd 686f ad3e
000000c0: 8590 5fbe d641 713d 9057 bb3e 9f3e 303e
000000d0: 2dcf 9fbe 3748 483e df6d 3cbe a9ac c03e
000000e0: 5de2 37bd f9fa 413d 3570 573e 528b 59be
000000f0: e566 36be d996 32be 6682 ff3e 7aef b639
00000100: f570 2d3d 9523 a3bd 1e16 dc3c 127c 3cbe
00000110: 5dee 1c3e 2d3a a53d b12e b2be 25d9 2fbe
00000120: cea5 3e3e d813 beba c782 d9bc 9bbb 51be
00000130: 28a3 8bbe f666 e13e f802 aabe d8f2 f4bd
00000140: 6503 7d3e 40d8 87bd 2a9b 4e3d 90a3 e13e
00000150: e654 4abe 5e24 c4bd 8c34 c1bd ae1f 133d
00000160: 48c6 36be 4236 953e 98cc 1bbe be3c 1b3e
00000170: 3be3 0ebe 0059 693d 5aba 9ebe 3e9a 9b3e
00000180: 84e7 afbd 667c 203e 4a62 9b3e fb13 ff3d
00000190: c650 2ebe 28cc f139 3abc 4e3d 7de7 71be
000001a0: 4873 823e c40e 1cbe 1eb5 60bd c1cb fdbd
000001b0: fe03 f0bc 7538 f9be 7e6f 053d 8bd9 5e3e
000001c0: df45 a33e fe5e 443d 120e 9dbc c8d6 c8be
000001d0: 4403 dbbd dccd 803d 71ee 5dbd d364 84bd
000001e0: 50a1 0bbe 8810 d4be 2cd0 8a3e 4d37 7e3d
000001f0: d5ec d83c a1bd 06be bb71 83bd ea3f 9c3e

blocks.1.mlp.fc1.bias f4 [16]
-0.13843131 -0.038939446 -0.09483331 0.07374334 0.027172167 0.021892814 -0.10639207 -0.09046456
0.008269908 -0.20851375 0.051400326 0.15997513 -0.04689729 0.0041301125 0.039751057 -0.01616967
00000000: f0c0 0dbe f87e 1fbd f737 c2bd c006 973d
00000010: 2a98 de3c 8f58 b33c 16e4 d9bd 7c45 b9bd
00000020: 827e 073c a184 55be 2689 523d 85d0 233e
00000030: 5f17 40bd e555 873b 01d2 223d 4176 84bc

blocks.1.mlp.fc2.weight f4 [8, 16]
0.22623047 -0.20110686 0.33679485 0.3249876 -0.14365731 0.0019242049 0.1268219 0.008703532
0.070209086 -0.18205158 -0.14050499 0.058657397 -0.011955143 -0.28869408 -0.019514488 0.11109592
-0.060929038 0.080460094 -0.15591858 0.05130038 0.2355198 -0.32112947 0.13078323 0.09315192
-0.15398155 -0.03422411 0.20611976 -0.25206712 0.1606414 0.06680794 0.0700427 0.01255776
0.0027713266 0.13525768 -0.015631538 -0.020225676 -0.28560728 0.24455126 -0.22200719 -0.18353193
-0.18723986 -0.1303066 -0.07283943 0.14457907 -0.14757696 -0.06254907 0.3076802 0.045468673
0.09782504 0.23390135 0.07276285 0.09037753 0.114800766 0.043131843 -0.15166797 0.087854534
0.30125168 -0.14252923 -0.24980383 -0.08343612 0.039568026 0.36226025 0.10155924 -0.15317406
-0.04017591 -0.119113624 -0.170131 -0.14744425 -0.06236461 -0.16170792 0.31639317 0.09263065
-0.056644868 0.36819813 -0.032318167 -0.16038465 -0.1792422 0.1577275 -0.09230304 0.14404513
0.03815911 -0.0070205447 0.17534074 -0.2500022 0.32740313 -0.13991874 -0.1162132 0.09569419
-0.079200454 -0.057776008 0.017533815 -0.0410996 0.044478923 -0.034833346 0.07446905 0.13668323
-0.29157537 -0.049893387 0.17034052 -0.2711932 -0.009652376 0.03196624 0.14476608 0.14645255
0.059017375 0.14161715 0.22903351 0.4301329 0.047190595 -0.048882563 -0.23360607 -0.34123382
0.03523987 0.09958823 0.002521615 0.04275369 -0.0940171 0.07377175 -0.0028029913 -0.33782104
0.10154536 -0.03744441 -0.069076344 -0.08300958 0.16527712 -0.1840241 0.11374301 -0.13885166
00000000: f6a8 673e f5ee 4dbe 6070 ac3e c664 a63e
00000010: e71a 13be 9a35 fc3a 9add 013e 4299 0e3c
00000020: c8c9 8f3d bb6b 3abe 8ae0 0fbe bd42 703d
00000030: 81df 43bc b6cf 93be d9dc 9fbc 4286 e33d
00000040: ba90 79bd 43c8 a43d 1fa9 1fbe 5920 523d
00000050: 1a2c 713e 156b a4be 0aec 053e 6fc6 be3d
00000060: 57ad 1dbe 952e 0cbd 0f11 533e f10e 81be
00000070: 2e7f 243e 9ad2 883d 8c72 8f3d 10bf 4d3c
00000080: 259f 353b fd80 0a3e b60d 80bc 51b0 a5bc
00000090: 1e3b 92be a56b 7a3e da55 63be cbef 3bbe
000000a0: cebb 3fbe 186f 05be d72c 95bd 890c 143e
000000b0: 6a1e 17be ba19 80bd 4288 9d3e 5c3d 3a3d
000000c0: 7f58 c83d d683 6f3e b004 953d db17 b93d
000000d0: aa1c eb3d 04ab 303d d94e 1bbe 14ed b33d
000000e0: a93d 9a3e 2ff3 11be 93cc 7fbe 8ee0 aabd
000000f0: 1512 223d 2d7a b93e 4afe cf3d a9d9 1cbe
00000100: 7f8f 24bd d8f1 f3bd d236 2ebe a0fb 16be
00000110: 0972 7fbd c396 25be 49fe a13e 23b5 bd3d
00000120: 7304 68bd 7784 bc3e 0e60 04bd e03b 24be
00000130: 448b 37be 5183 213e 6009 bdbd 9180 133e
00000140: ba4c 1c3d 990c e6bb 868c 333e 4a00 80be
00000150: 62a1 a73e dc46 0fbe 3001 eebd 51fb c33d
00000160: d933 a2bd 89a6 6cbd 13a3 8f3c 0e58 28bd
00000170: 882f 363d 69ad 0ebd 3b83 983d b0f6 0b3e
00000180: 5e49 95be 025d 4cbd bf6d 2e3e d6d9 8abe
00000190: 0025 1ebc 08ef 023d 8f3d 143e a8f7 153e
000001a0: 34bc 713d 1604 113e c387 6a3e 613a dc3e
000001b0: ed4a 413d 1539 48bd 6e36 6fbe 33b6 aebe
000001c0: af57 103d eaf4 cb3d ae41 253b 7e1e 2f3d
000001d0: 0a8c c0bd a515 973d 64b2 37bb e1f6 acbe
000001e0: 04f7 cf3d 4f5f 19bd e677 8dbd ed00 aabd
000001f0: 683e 293e d070 3cbe 18f2 e83d 212f 0ebe

blocks.1.mlp.fc2.bias f4 [8]
-0.04489494 0.035108514 -0.0772818 -0.025927268 -0.06298981 -0.0010967881 0.07916523 0.1023309
00000000: c2e3 37bd f2cd 0f3d ec45 9ebd 6c65 d4bc
00000010: cd00 81bd 1ac2 8fba 6121 a23d dd92 d13d

norm.weight f4 [8]
1.8140833 1.7094152 2.0455573 2.161893 1.6035033 1.9425452 1.9006015 1.6341752
00000000: e233 e83f 1ece da3f 69ea 0240 745c 0a40
00000010: 993f cd3f 52a5 f83f e946 f33f a72c d13f

norm.bias f4 [8]
0.05968739 -0.016851127 -0.007754733 0.08074649 0.039282575 -0.046310827 0.0048074718 -0.1647807
00000000: c47a 743d 600b 8abc 6a1b febb 6a5e a53d
00000010: c4e6 203d 6cb0 3dbd ff87 9d3b 46bc 28be

head.weight f4 [10, 8]
0.32327047 0.25694296 -0.47781196 -1.289538 0.4038748 -0.100150526 0.16098274 0.27939197
0.16722406 0.2910193 0.7398677 -0.052850094 -0.42264533 0.22644155 0.68339354 -1.1999593
0.15984952 0.19827002 1.0621897 -0.6715931 -0.28069523 -0.42439777 -0.7477834 0.57441235
-0.07232004 -0.17234395 0.28854707 1.0373642 0.6246757 -0.87667096 -0.5986834 -0.24430755
-0.6117777 -0.69566685 0.15607275 0.12134813 -0.565996 -0.08169845 1.1259807 0.62939876
-0.45573926 0.6299911 -0.5968089 0.63927776 0.21936291 0.50833917 -0.70926094 -0.4088631
-1.240471 0.22578794 0.040195722 -0.7937773 0.2341585 1.1203834 0.12884577 0.17200777
0.58052665 0.85654557 -0.29475537 0.45018086 -0.98945737 -0.7550466 0.040757865 0.15930599
0.7341788 -0.9394219 0.21783742 -0.061023485 0.22797847 0.68964255 -0.46740776 -0.27290595
0.3618611 -0.3604578 -1.2764772 0.4131413 0.533883 -0.43406627 0.4499225 0.32983857
00000000: b583 a53e 078e 833e c5a3 f4be 950f a5bf
00000010: aec8 ce3e b81b cdbd a9d8 243e 770c 8f3e
00000020: c93c 2b3e 7b00 953e f867 3d3f 5779 58bd
00000030: f864 d8be 4be0 673e e1f2 2e3f 4498 99bf
00000040: 98af 233e 4c07 4b3e d5f5 873f 87ed 2bbf
00000050: 49b7 8fbe aa4a d9be bc6e 3fbf b00c 133f
00000060: 871c 94bd ef7a 30be 71bc 933e 5ac8 843f
00000070: bfea 1f3f 826d 60bf 5143 19bf c22b 7abe
00000080: 779d 1cbf 3917 32bf 89d1 1f3e 5e85 f83d
00000090: 1de5 10bf 8451 a7bd 2320 903f 4720 213f
000000a0: a856 e9be 1947 213f 78c8 18bf b5a7 233f
000000b0: aca0 603e 8422 023f 2092 35bf 8156 d1be
000000c0: c1c7 9ebf f434 673e 45a4 243d fd34 4bbf
000000d0: 3fc7 6f3e b968 8f3f 25f0 033e ce22 303e
000000e0: 659d 143f 9246 5b3f 2dea 96be 1b7e e63e
000000f0: 144d 7dbf bc4a 41bf b8f1 263d 1c21 233e
00000100: 24f3 3b3f f47d 70bf c610 5f3e c3f3 79bd
00000110: 3073 693e 6a8c 303f 1250 efbe 54ba 8bbe
00000120: dc45 b93e ed8d b8be 9b63 a3bf 4287 d33e
00000130: 8eac 083f ef3d debe 3e5c e63e 9ae0 a83e

head.bias f4 [10]
0.092817485 0.118899114 0.069263324 -0.15286459 0.12343718 0.31271714 -0.3212719 -0.13417406
-0.040828995 -0.054655813
00000000: 1817 be3d 6181 f33d eed9 8d3d 8988 1cbe
00000010: a2cc fc3d 761c a03e c07d a4be ed64 09be
00000020: 4e3c 27bd c6de 5fbd
